data_dir : sample-data
test_size : 0.2
keep_prob : 0.0
epochs : 1
batch_size : 8
correction : 0.25
output_folder : output4
summary_filename : SUMMARY

_________________________________________________________________
Layer (type)                 Output Shape              Param #   
=================================================================
cropping2d_1 (Cropping2D)    (None, 85, 320, 3)        0         
_________________________________________________________________
lambda_1 (Lambda)            (None, 85, 320, 3)        0         
_________________________________________________________________
conv2d_1 (Conv2D)            (None, 41, 158, 24)       1824      
_________________________________________________________________
conv2d_2 (Conv2D)            (None, 19, 77, 36)        21636     
_________________________________________________________________
conv2d_3 (Conv2D)            (None, 8, 37, 48)         43248     
_________________________________________________________________
conv2d_4 (Conv2D)            (None, 6, 35, 64)         27712     
_________________________________________________________________
conv2d_5 (Conv2D)            (None, 4, 33, 64)         36928     
_________________________________________________________________
dropout_1 (Dropout)          (None, 4, 33, 64)         0         
_________________________________________________________________
flatten_1 (Flatten)          (None, 8448)              0         
_________________________________________________________________
dense_1 (Dense)              (None, 100)               844900    
_________________________________________________________________
dense_2 (Dense)              (None, 50)                5050      
_________________________________________________________________
dense_3 (Dense)              (None, 10)                510       
_________________________________________________________________
dense_4 (Dense)              (None, 1)                 11        
=================================================================
Total params: 981,819
Trainable params: 981,819
Non-trainable params: 0
_________________________________________________________________
